…
tput_type":"stream","text":["Model: \"Xception\"\n","__________________________________________________________________________________________________\n","Layer (type)                    Output Shape         Param #     Connected to                     \n","==================================================================================================\n","input_2 (InputLayer)            [(None, 600, 6)]     0                                            \n","__________________________________________________________________________________________________\n","conv1d_6 (Conv1D)               (None, 300, 32)      608         input_2[0][0]                    \n","__________________________________________________________________________________________________\n","batch_normalization_40 (BatchNo (None, 300, 32)      128         conv1d_6[0][0]                   \n","__________________________________________________________________________________________________\n","activation_35 (Activation)      (None, 300, 32)      0           batch_normalization_40[0][0]     \n","__________________________________________________________________________________________________\n","conv1d_7 (Conv1D)               (None, 300, 64)      6208        activation_35[0][0]              \n","__________________________________________________________________________________________________\n","batch_normalization_41 (BatchNo (None, 300, 64)      256         conv1d_7[0][0]                   \n","__________________________________________________________________________________________________\n","activation_36 (Activation)      (None, 300, 64)      0           batch_normalization_41[0][0]     \n","__________________________________________________________________________________________________\n","separable_conv1d_34 (SeparableC (None, 300, 128)     8512        activation_36[0][0]              \n","__________________________________________________________________________________________________\n","batch_normalization_43 (BatchNo (None, 300, 128)     512         separable_conv1d_34[0][0]        \n","__________________________________________________________________________________________________\n","activation_37 (Activation)      (None, 300, 128)     0           batch_normalization_43[0][0]     \n","__________________________________________________________________________________________________\n","separable_conv1d_35 (SeparableC (None, 300, 128)     16896       activation_37[0][0]              \n","__________________________________________________________________________________________________\n","batch_normalization_44 (BatchNo (None, 300, 128)     512         separable_conv1d_35[0][0]        \n","__________________________________________________________________________________________________\n","conv1d_8 (Conv1D)               (None, 150, 128)     41088       activation_36[0][0]              \n","__________________________________________________________________________________________________\n","max_pooling1d_4 (MaxPooling1D)  (None, 150, 128)     0           batch_normalization_44[0][0]     \n","__________________________________________________________________________________________________\n","batch_normalization_42 (BatchNo (None, 150, 128)     512         conv1d_8[0][0]                   \n","__________________________________________________________________________________________________\n","add_12 (Add)                    (None, 150, 128)     0           max_pooling1d_4[0][0]            \n","                                                                 batch_normalization_42[0][0]     \n","__________________________________________________________________________________________________\n","activation_38 (Activation)      (None, 150, 128)     0           add_12[0][0]                     \n","__________________________________________________________________________________________________\n","separable_conv1d_36 (SeparableC (None, 150, 256)     33408       activation_38[0][0]              \n","__________________________________________________________________________________________________\n","batch_normalization_46 (BatchNo (None, 150, 256)     1024        separable_conv1d_36[0][0]        \n","__________________________________________________________________________________________________\n","activation_39 (Activation)      (None, 150, 256)     0           batch_normalization_46[0][0]     \n","__________________________________________________________________________________________________\n","separable_conv1d_37 (SeparableC (None, 150, 256)     66560       activation_39[0][0]              \n","__________________________________________________________________________________________________\n","batch_normalization_47 (BatchNo (None, 150, 256)     1024        separable_conv1d_37[0][0]        \n","__________________________________________________________________________________________________\n","conv1d_9 (Conv1D)               (None, 75, 256)      164096      add_12[0][0]                     \n","__________________________________________________________________________________________________\n","max_pooling1d_5 (MaxPooling1D)  (None, 75, 256)      0           batch_normalization_47[0][0]     \n","__________________________________________________________________________________________________\n","batch_normalization_45 (BatchNo (None, 75, 256)      1024        conv1d_9[0][0]                   \n","__________________________________________________________________________________________________\n","add_13 (Add)                    (None, 75, 256)      0           max_pooling1d_5[0][0]            \n","                                                                 batch_normalization_45[0][0]     \n","__________________________________________________________________________________________________\n","activation_40 (Activation)      (None, 75, 256)      0           add_13[0][0]                     \n","__________________________________________________________________________________________________\n","separable_conv1d_38 (SeparableC (None, 75, 728)      187864      activation_40[0][0]              \n","__________________________________________________________________________________________________\n","batch_normalization_49 (BatchNo (None, 75, 728)      2912        separable_conv1d_38[0][0]        \n","__________________________________________________________________________________________________\n","activation_41 (Activation)      (None, 75, 728)      0           batch_normalization_49[0][0]     \n","__________________________________________________________________________________________________\n","separable_conv1d_39 (SeparableC (None, 75, 728)      532896      activation_41[0][0]              \n","__________________________________________________________________________________________________\n","batch_normalization_50 (BatchNo (None, 75, 728)      2912        separable_conv1d_39[0][0]        \n","__________________________________________________________________________________________________\n","conv1d_10 (Conv1D)              (None, 38, 728)      932568      add_13[0][0]                     \n","__________________________________________________________________________________________________\n","max_pooling1d_6 (MaxPooling1D)  (None, 38, 728)      0           batch_normalization_50[0][0]     \n","__________________________________________________________________________________________________\n","batch_normalization_48 (BatchNo (None, 38, 728)      2912        conv1d_10[0][0]                  \n","__________________________________________________________________________________________________\n","add_14 (Add)                    (None, 38, 728)      0           max_pooling1d_6[0][0]            \n","                                                                 batch_normalization_48[0][0]     \n","__________________________________________________________________________________________________\n","activation_42 (Activation)      (None, 38, 728)      0           add_14[0][0]                     \n","__________________________________________________________________________________________________\n","separable_conv1d_40 (SeparableC (None, 38, 728)      532896      activation_42[0][0]              \n","__________________________________________________________________________________________________\n","batch_normalization_51 (BatchNo (None, 38, 728)      2912        separable_conv1d_40[0][0]        \n","__________________________________________________________________________________________________\n","activation_43 (Activation)      (None, 38, 728)      0           batch_normalization_51[0][0]     \n","__________________________________________________________________________________________________\n","separable_conv1d_41 (SeparableC (None, 38, 728)      532896      activation_43[0][0]              \n","__________________________________________________________________________________________________\n","batch_normalization_52 (BatchNo (None, 38, 728)      2912        separable_conv1d_41[0][0]        \n","__________________________________________________________________________________________________\n","activation_44 (Activation)      (None, 38, 728)      0           batch_normalization_52[0][0]     \n","__________________________________________________________________________________________________\n","separable_conv1d_42 (SeparableC (None, 38, 728)      532896      activation_44[0][0]              \n","__________________________________________________________________________________________________\n","batch_normalization_53 (BatchNo (None, 38, 728)      2912        separable_conv1d_42[0][0]        \n","__________________________________________________________________________________________________\n","add_15 (Add)                    (None, 38, 728)      0           batch_normalization_53[0][0]     \n","                                                                 add_14[0][0]                     \n","__________________________________________________________________________________________________\n","activation_45 (Activation)      (None, 38, 728)      0           add_15[0][0]                     \n","__________________________________________________________________________________________________\n","separable_conv1d_43 (SeparableC (None, 38, 728)      532896      activation_45[0][0]              \n","__________________________________________________________________________________________________\n","batch_normalization_54 (BatchNo (None, 38, 728)      2912        separable_conv1d_43[0][0]        \n","__________________________________________________________________________________________________\n","activation_46 (Activation)      (None, 38, 728)      0           batch_normalization_54[0][0]     \n","__________________________________________________________________________________________________\n","separable_conv1d_44 (SeparableC (None, 38, 728)      532896      activation_46[0][0]              \n","__________________________________________________________________________________________________\n","batch_normalization_55 (BatchNo (None, 38, 728)      2912        separable_conv1d_44[0][0]        \n","__________________________________________________________________________________________________\n","activation_47 (Activation)      (None, 38, 728)      0           batch_normalization_55[0][0]     \n","__________________________________________________________________________________________________\n","separable_conv1d_45 (SeparableC (None, 38, 728)      532896      activation_47[0][0]              \n","__________________________________________________________________________________________________\n","batch_normalization_56 (BatchNo (None, 38, 728)      2912        separable_conv1d_45[0][0]        \n","__________________________________________________________________________________________________\n","add_16 (Add)                    (None, 38, 728)      0           batch_normalization_56[0][0]     \n","                                                                 add_14[0][0]                     \n","                                                                 add_15[0][0]                     \n","__________________________________________________________________________________________________\n","activation_48 (Activation)      (None, 38, 728)      0           add_16[0][0]                     \n","__________________________________________________________________________________________________\n","separable_conv1d_46 (SeparableC (None, 38, 728)      532896      activation_48[0][0]              \n","__________________________________________________________________________________________________\n","batch_normalization_57 (BatchNo (None, 38, 728)      2912        separable_conv1d_46[0][0]        \n","__________________________________________________________________________________________________\n","activation_49 (Activation)      (None, 38, 728)      0           batch_normalization_57[0][0]     \n","__________________________________________________________________________________________________\n","separable_conv1d_47 (SeparableC (None, 38, 728)      532896      activation_49[0][0]              \n","__________________________________________________________________________________________________\n","batch_normalization_58 (BatchNo (None, 38, 728)      2912        separable_conv1d_47[0][0]        \n","__________________________________________________________________________________________________\n","activation_50 (Activation)      (None, 38, 728)      0           batch_normalization_58[0][0]     \n","__________________________________________________________________________________________________\n","separable_conv1d_48 (SeparableC (None, 38, 728)      532896      activation_50[0][0]              \n","__________________________________________________________________________________________________\n","batch_normalization_59 (BatchNo (None, 38, 728)      2912        separable_conv1d_48[0][0]        \n","__________________________________________________________________________________________________\n","add_17 (Add)                    (None, 38, 728)      0           batch_normalization_59[0][0]     \n","                                                                 add_14[0][0]                     \n","                                                                 add_15[0][0]                     \n","                                                                 add_16[0][0]                     \n","__________________________________________________________________________________________________\n","activation_51 (Activation)      (None, 38, 728)      0           add_17[0][0]                     \n","__________________________________________________________________________________________________\n","separable_conv1d_49 (SeparableC (None, 38, 728)      532896      activation_51[0][0]              \n","__________________________________________________________________________________________________\n","batch_normalization_60 (BatchNo (None, 38, 728)      2912        separable_conv1d_49[0][0]        \n","__________________________________________________________________________________________________\n","activation_52 (Activation)      (None, 38, 728)      0           batch_normalization_60[0][0]     \n","__________________________________________________________________________________________________\n","separable_conv1d_50 (SeparableC (None, 38, 728)      532896      activation_52[0][0]              \n","__________________________________________________________________________________________________\n","batch_normalization_61 (BatchNo (None, 38, 728)      2912        separable_conv1d_50[0][0]        \n","__________________________________________________________________________________________________\n","activation_53 (Activation)      (None, 38, 728)      0           batch_normalization_61[0][0]     \n","__________________________________________________________________________________________________\n","separable_conv1d_51 (SeparableC (None, 38, 728)      532896      activation_53[0][0]              \n","__________________________________________________________________________________________________\n","batch_normalization_62 (BatchNo (None, 38, 728)      2912        separable_conv1d_51[0][0]        \n","__________________________________________________________________________________________________\n","add_18 (Add)                    (None, 38, 728)      0           batch_normalization_62[0][0]     \n","                                                                 add_14[0][0]                     \n","                                                                 add_15[0][0]                     \n","                                                                 add_16[0][0]                     \n","                                                                 add_17[0][0]                     \n","__________________________________________________________________________________________________\n","activation_54 (Activation)      (None, 38, 728)      0           add_18[0][0]                     \n","__________________________________________________________________________________________________\n","separable_conv1d_52 (SeparableC (None, 38, 728)      532896      activation_54[0][0]              \n","__________________________________________________________________________________________________\n","batch_normalization_63 (BatchNo (None, 38, 728)      2912        separable_conv1d_52[0][0]        \n","__________________________________________________________________________________________________\n","activation_55 (Activation)      (None, 38, 728)      0           batch_normalization_63[0][0]     \n","__________________________________________________________________________________________________\n","separable_conv1d_53 (SeparableC (None, 38, 728)      532896      activation_55[0][0]              \n","__________________________________________________________________________________________________\n","batch_normalization_64 (BatchNo (None, 38, 728)      2912        separable_conv1d_53[0][0]        \n","__________________________________________________________________________________________________\n","activation_56 (Activation)      (None, 38, 728)      0           batch_normalization_64[0][0]     \n","__________________________________________________________________________________________________\n","separable_conv1d_54 (SeparableC (None, 38, 728)      532896      activation_56[0][0]              \n","__________________________________________________________________________________________________\n","batch_normalization_65 (BatchNo (None, 38, 728)      2912        separable_conv1d_54[0][0]        \n","__________________________________________________________________________________________________\n","add_19 (Add)                    (None, 38, 728)      0           batch_normalization_65[0][0]     \n","                                                                 add_14[0][0]                     \n","                                                                 add_15[0][0]                     \n","                                                                 add_16[0][0]                     \n","                                                                 add_17[0][0]                     \n","                                                                 add_18[0][0]                     \n","__________________________________________________________________________________________________\n","activation_57 (Activation)      (None, 38, 728)      0           add_19[0][0]                     \n","__________________________________________________________________________________________________\n","separable_conv1d_55 (SeparableC (None, 38, 728)      532896      activation_57[0][0]              \n","__________________________________________________________________________________________________\n","batch_normalization_66 (BatchNo (None, 38, 728)      2912        separable_conv1d_55[0][0]        \n","__________________________________________________________________________________________________\n","activation_58 (Activation)      (None, 38, 728)      0           batch_normalization_66[0][0]     \n","__________________________________________________________________________________________________\n","separable_conv1d_56 (SeparableC (None, 38, 728)      532896      activation_58[0][0]              \n","__________________________________________________________________________________________________\n","batch_normalization_67 (BatchNo (None, 38, 728)      2912        separable_conv1d_56[0][0]        \n","__________________________________________________________________________________________________\n","activation_59 (Activation)      (None, 38, 728)      0           batch_normalization_67[0][0]     \n","__________________________________________________________________________________________________\n","separable_conv1d_57 (SeparableC (None, 38, 728)      532896      activation_59[0][0]              \n","__________________________________________________________________________________________________\n","batch_normalization_68 (BatchNo (None, 38, 728)      2912        separable_conv1d_57[0][0]        \n","__________________________________________________________________________________________________\n","add_20 (Add)                    (None, 38, 728)      0           batch_normalization_68[0][0]     \n","                                                                 add_14[0][0]                     \n","                                                                 add_15[0][0]                     \n","                                                                 add_16[0][0]                     \n","                                                                 add_17[0][0]                     \n","                                                                 add_18[0][0]                     \n","                                                                 add_19[0][0]                     \n","__________________________________________________________________________________________________\n","activation_60 (Activation)      (None, 38, 728)      0           add_20[0][0]                     \n","__________________________________________________________________________________________________\n","separable_conv1d_58 (SeparableC (None, 38, 728)      532896      activation_60[0][0]              \n","__________________________________________________________________________________________________\n","batch_normalization_69 (BatchNo (None, 38, 728)      2912        separable_conv1d_58[0][0]        \n","__________________________________________________________________________________________________\n","activation_61 (Activation)      (None, 38, 728)      0           batch_normalization_69[0][0]     \n","__________________________________________________________________________________________________\n","separable_conv1d_59 (SeparableC (None, 38, 728)      532896      activation_61[0][0]              \n","__________________________________________________________________________________________________\n","batch_normalization_70 (BatchNo (None, 38, 728)      2912        separable_conv1d_59[0][0]        \n","__________________________________________________________________________________________________\n","activation_62 (Activation)      (None, 38, 728)      0           batch_normalization_70[0][0]     \n","__________________________________________________________________________________________________\n","separable_conv1d_60 (SeparableC (None, 38, 728)      532896      activation_62[0][0]              \n","__________________________________________________________________________________________________\n","batch_normalization_71 (BatchNo (None, 38, 728)      2912        separable_conv1d_60[0][0]        \n","__________________________________________________________________________________________________\n","add_21 (Add)                    (None, 38, 728)      0           batch_normalization_71[0][0]     \n","                                                                 add_14[0][0]                     \n","                                                                 add_15[0][0]                     \n","                                                                 add_16[0][0]                     \n","                                                                 add_17[0][0]                     \n","                                                                 add_18[0][0]                     \n","                                                                 add_19[0][0]                     \n","                                                                 add_20[0][0]                     \n","__________________________________________________________________________________________________\n","activation_63 (Activation)      (None, 38, 728)      0           add_21[0][0]                     \n","__________________________________________________________________________________________________\n","separable_conv1d_61 (SeparableC (None, 38, 728)      532896      activation_63[0][0]              \n","__________________________________________________________________________________________________\n","batch_normalization_72 (BatchNo (None, 38, 728)      2912        separable_conv1d_61[0][0]        \n","__________________________________________________________________________________________________\n","activation_64 (Activation)      (None, 38, 728)      0           batch_normalization_72[0][0]     \n","__________________________________________________________________________________________________\n","separable_conv1d_62 (SeparableC (None, 38, 728)      532896      activation_64[0][0]              \n","__________________________________________________________________________________________________\n","batch_normalization_73 (BatchNo (None, 38, 728)      2912        separable_conv1d_62[0][0]        \n","__________________________________________________________________________________________________\n","activation_65 (Activation)      (None, 38, 728)      0           batch_normalization_73[0][0]     \n","__________________________________________________________________________________________________\n","separable_conv1d_63 (SeparableC (None, 38, 728)      532896      activation_65[0][0]              \n","__________________________________________________________________________________________________\n","batch_normalization_74 (BatchNo (None, 38, 728)      2912        separable_conv1d_63[0][0]        \n","__________________________________________________________________________________________________\n","add_22 (Add)                    (None, 38, 728)      0           batch_normalization_74[0][0]     \n","                                                                 add_14[0][0]                     \n","                                                                 add_15[0][0]                     \n","                                                                 add_16[0][0]                     \n","                                          
…
               add_17[0][0]                     \n","                                                                 add_18[0][0]                     \n","                                                                 add_19[0][0]                     \n","                                                                 add_20[0][0]                     \n","                                                                 add_21[0][0]                     \n","__________________________________________________________________________________________________\n","activation_66 (Activation)      (None, 38, 728)      0           add_22[0][0]                     \n","__________________________________________________________________________________________________\n","separable_conv1d_64 (SeparableC (None, 38, 728)      532896      activation_66[0][0]              \n","__________________________________________________________________________________________________\n","batch_normalization_76 (BatchNo (None, 38, 728)      2912        separable_conv1d_64[0][0]        \n","__________________________________________________________________________________________________\n","activation_67 (Activation)      (None, 38, 728)      0           batch_normalization_76[0][0]     \n","__________________________________________________________________________________________________\n","separable_conv1d_65 (SeparableC (None, 38, 1024)     748680      activation_67[0][0]              \n","__________________________________________________________________________________________________\n","batch_normalization_77 (BatchNo (None, 38, 1024)     4096        separable_conv1d_65[0][0]        \n","__________________________________________________________________________________________________\n","conv1d_11 (Conv1D)              (None, 19, 1024)     3728384     add_22[0][0]                     \n","__________________________________________________________________________________________________\n","max_pooling1d_7 (MaxPooling1D)  (None, 19, 1024)     0           batch_normalization_77[0][0]     \n","__________________________________________________________________________________________________\n","batch_normalization_75 (BatchNo (None, 19, 1024)     4096        conv1d_11[0][0]                  \n","__________________________________________________________________________________________________\n","add_23 (Add)                    (None, 19, 1024)     0           max_pooling1d_7[0][0]            \n","                                                                 batch_normalization_75[0][0]     \n","__________________________________________________________________________________________________\n","separable_conv1d_66 (SeparableC (None, 19, 1536)     1577472     add_23[0][0]                     \n","__________________________________________________________________________________________________\n","batch_normalization_78 (BatchNo (None, 19, 1536)     6144        separable_conv1d_66[0][0]        \n","__________________________________________________________________________________________________\n","activation_68 (Activation)      (None, 19, 1536)     0           batch_normalization_78[0][0]     \n","__________________________________________________________________________________________________\n","separable_conv1d_67 (SeparableC (None, 19, 2048)     3152384     activation_68[0][0]              \n","__________________________________________________________________________________________________\n","batch_normalization_79 (BatchNo (None, 19, 2048)     8192        separable_conv1d_67[0][0]        \n","__________________________________________________________________________________________________\n","activation_69 (Activation)      (None, 19, 2048)     0           batch_normalization_79[0][0]     \n","__________________________________________________________________________________________________\n","global_average_pooling1d_1 (Glo (None, 2048)         0           activation_69[0][0]              \n","__________________________________________________________________________________________________\n","dense_1 (Dense)                 (None, 61)           124989      global_average_pooling1d_1[0][0] \n","==================================================================================================\n","Total params: 24,754,069\n","Trainable params: 24,699,541\n","Non-trainable params: 54,528\n","__________________________________________________________________________________________________\n"],"name":"stdout"}]},{"cell_type":"markdown","metadata":{
…
