…
    return x\r\n","\r\n","def sepconv1d_bn(x, filters, kernel_size, padding='same', strides=1, activation='relu', weight_decay=1e-5, depth_multiplier=1):\r\n","    x = SeparableConv1D(filters, kernel_size, padding=padding, strides=strides, depth_multiplier=depth_multiplier, depthwise_regularizer=l2(weight_decay), pointwise_regularizer=l2(weight_decay))(x)\r\n","    x = BatchNormalization()(x)\r\n","    if activation: x = Activation(activation)(x)\r\n","    return x\r\n","\r\n","def Xception(model_input, classes):\r\n","    ## Entry flow\r\n","    x = conv1d_bn(model_input, 32, 3, strides=2) # (600, 6) -> (300, 32)\r\n","    x = conv1d_bn(x, 64, 3)\r\n","\r\n","    for fliters in [128, 256, 728]: # (300, 64) -> (150, 128) -> (75, 256) -> (38, 728)\r\n","        residual = conv1d_bn(x, fliters, 1, strides=2, activation=None)\r\n","\r\n","        x = Activation(activation='relu')(x)\r\n","        x = sepconv1d_bn(x, fliters, 3)\r\n","        x = sepconv1d_bn(x, fliters, 3, activation=None)\r\n","        x = MaxPool1D(3, padding='same', strides=2)(x)\r\n","        \r\n","        x = Add()([x, residual])\r\n","        \r\n","        \r\n","    ## Middle flow\r\n","    for i in range(8): # (38, 728)\r\n","        residual = x\r\n","        \r\n","        x = Activation(activation='relu')(x)\r\n","        x = sepconv1d_bn(x, 728, 3)\r\n","        x = sepconv1d_bn(x, 728, 3)\r\n","        x = sepconv1d_bn(x, 728, 3, activation=None)\r\n","        \r\n","        x = Add()([x, residual])\r\n","        \r\n","        \r\n","    ## Exit flow\r\n","    residual = conv1d_bn(x, 1024, 1, strides=2, activation=None) # (38, 728) -> (19, 1024)\r\n","        \r\n","    x = Activation(activation='relu')(x)\r\n","    x = sepconv1d_bn(x, 728, 3)\r\n","    x = sepconv1d_bn(x, 1024, 3, activation=None) # (38, 728) -> (38, 1024)\r\n","    x = MaxPool1D(3, padding='same', strides=2)(x) # (38, 1024) -> (19, 1024)\r\n","    \r\n","    x = Add()([x, residual])\r\n","    \r\n","    x = sepconv1d_bn(x, 1536, 3)\r\n","    x = sepconv1d_bn(x, 2048, 3)\r\n","\r\n","    x = GlobalAvgPool1D()(x)\r\n","    \r\n","    ## Optinal fully-connected layers\r\n","    '''\r\n","    x = Dense(4096)(x)\r\n","    x = BatchNormalization()(x)\r\n","    x = Activation(activation='relu')(x)\r\n","    \r\n","    x = De
…
tput_type":"stream","text":["Model: \"Xception\"\n","__________________________________________________________________________________________________\n","Layer (type)                    Output Shape         Param #     Connected to                     \n","==================================================================================================\n","input_13 (InputLayer)           [(None, 600, 6)]     0                                            \n","__________________________________________________________________________________________________\n","conv1d_87 (Conv1D)              (None, 300, 32)      608         input_13[0][0]                   \n","__________________________________________________________________________________________________\n","batch_normalization_463 (BatchN (None, 300, 32)      128         conv1d_87[0][0]                  \n","__________________________________________________________________________________________________\n","activation_419 (Activation)     (None, 300, 32)      0           batch_normalization_463[0][0]    \n","__________________________________________________________________________________________________\n","conv1d_88 (Conv1D)              (None, 300, 64)      6208        activation_419[0][0]             \n","__________________________________________________________________________________________________\n","batch_normalization_464 (BatchN (None, 300, 64)      256         conv1d_88[0][0]                  \n","__________________________________________________________________________________________________\n","activation_420 (Activation)     (None, 300, 64)      0           batch_normalization_464[0][0]    \n","__________________________________________________________________________________________________\n","activation_421 (Activation)     (None, 300, 64)      0           activation_420[0][0]             \n","__________________________________________________________________________________________________\n","separable_conv1d_372 (Separable (None, 300, 128)     8512        activation_421[0][0]             \n","__________________________________________________________________________________________________\n","batch_normalization_466 (BatchN (None, 300, 128)     512         separable_conv1d_372[0][0]       \n","__________________________________________________________________________________________________\n","activation_422 (Activation)     (None, 300, 128)     0           batch_normalization_466[0][0]    \n","__________________________________________________________________________________________________\n","separable_conv1d_373 (Separable (None, 300, 128)     16896       activation_422[0][0]             \n","__________________________________________________________________________________________________\n","batch_normalization_467 (BatchN (None, 300, 128)     512         separable_conv1d_373[0][0]       \n","__________________________________________________________________________________________________\n","conv1d_89 (Conv1D)              (None, 150, 128)     8320        activation_420[0][0]             \n","__________________________________________________________________________________________________\n","max_pooling1d_63 (MaxPooling1D) (None, 150, 128)     0           batch_normalization_467[0][0]    \n","__________________________________________________________________________________________________\n","batch_normalization_465 (BatchN (None, 150, 128)     512         conv1d_89[0][0]                  \n","__________________________________________________________________________________________________\n","add_132 (Add)                   (None, 150, 128)     0           max_pooling1d_63[0][0]           \n","                                                                 batch_normalization_465[0][0]    \n","__________________________________________________________________________________________________\n","activation_423 (Activation)     (None, 150, 128)     0           add_132[0][0]                    \n","__________________________________________________________________________________________________\n","separable_conv1d_374 (Separable (None, 150, 256)     33408       activation_423[0][0]             \n","__________________________________________________________________________________________________\n","batch_normalization_469 (BatchN (None, 150, 256)     1024        separable_conv1d_374[0][0]       \n","__________________________________________________________________________________________________\n","activation_424 (Activation)     (None, 150, 256)     0           batch_normalization_469[0][0]    \n","__________________________________________________________________________________________________\n","separable_conv1d_375 (Separable (None, 150, 256)     66560       activation_424[0][0]             \n","__________________________________________________________________________________________________\n","batch_normalization_470 (BatchN (None, 150, 256)     1024        separable_conv1d_375[0][0]       \n","__________________________________________________________________________________________________\n","conv1d_90 (Conv1D)              (None, 75, 256)      33024       add_132[0][0]                    \n","__________________________________________________________________________________________________\n","max_pooling1d_64 (MaxPooling1D) (None, 75, 256)      0           batch_normalization_470[0][0]    \n","__________________________________________________________________________________________________\n","batch_normalization_468 (BatchN (None, 75, 256)      1024        conv1d_90[0][0]                  \n","__________________________________________________________________________________________________\n","add_133 (Add)                   (None, 75, 256)      0           max_pooling1d_64[0][0]           \n","                                                                 batch_normalization_468[0][0]    \n","__________________________________________________________________________________________________\n","activation_425 (Activation)     (None, 75, 256)      0           add_133[0][0]                    \n","__________________________________________________________________________________________________\n","separable_conv1d_376 (Separable (None, 75, 728)      187864      activation_425[0][0]             \n","__________________________________________________________________________________________________\n","batch_normalization_472 (BatchN (None, 75, 728)      2912        separable_conv1d_376[0][0]       \n","__________________________________________________________________________________________________\n","activation_426 (Activation)     (None, 75, 728)      0           batch_normalization_472[0][0]    \n","__________________________________________________________________________________________________\n","separable_conv1d_377 (Separable (None, 75, 728)      532896      activation_426[0][0]             \n","__________________________________________________________________________________________________\n","batch_normalization_473 (BatchN (None, 75, 728)      2912        separable_conv1d_377[0][0]       \n","__________________________________________________________________________________________________\n","conv1d_91 (Conv1D)              (None, 38, 728)      187096      add_133[0][0]                    \n","__________________________________________________________________________________________________\n","max_pooling1d_65 (MaxPooling1D) (None, 38, 728)      0           batch_normalization_473[0][0]    \n","__________________________________________________________________________________________________\n","batch_normalization_471 (BatchN (None, 38, 728)      2912        conv1d_91[0][0]                  \n","__________________________________________________________________________________________________\n","add_134 (Add)                   (None, 38, 728)      0           max_pooling1d_65[0][0]           \n","                                                                 batch_normalization_471[0][0]    \n","__________________________________________________________________________________________________\n","activation_427 (Activation)     (None, 38, 728)      0           add_134[0][0]                    \n","__________________________________________________________________________________________________\n","separable_conv1d_378 (Separable (None, 38, 728)      532896      activation_427[0][0]             \n","__________________________________________________________________________________________________\n","batch_normalization_474 (BatchN (None, 38, 728)      2912        separable_conv1d_378[0][0]       \n","__________________________________________________________________________________________________\n","activation_428 (Activation)     (None, 38, 728)      0           batch_normalization_474[0][0]    \n","__________________________________________________________________________________________________\n","separable_conv1d_379 (Separable (None, 38, 728)      532896      activation_428[0][0]             \n","__________________________________________________________________________________________________\n","batch_normalization_475 (BatchN (None, 38, 728)      2912        separable_conv1d_379[0][0]       \n","__________________________________________________________________________________________________\n","activation_429 (Activation)     (None, 38, 728)      0           batch_normalization_475[0][0]    \n","__________________________________________________________________________________________________\n","separable_conv1d_380 (Separable (None, 38, 728)      532896      activation_429[0][0]             \n","__________________________________________________________________________________________________\n","batch_normalization_476 (BatchN (None, 38, 728)      2912        separable_conv1d_380[0][0]       \n","__________________________________________________________________________________________________\n","add_135 (Add)                   (None, 38, 728)      0           batch_normalization_476[0][0]    \n","                                                                 add_134[0][0]                    \n","__________________________________________________________________________________________________\n","activation_430 (Activation)     (None, 38, 728)      0           add_135[0][0]                    \n","__________________________________________________________________________________________________\n","separable_conv1d_381 (Separable (None, 38, 728)      532896      activation_430[0][0]             \n","__________________________________________________________________________________________________\n","batch_normalization_477 (BatchN (None, 38, 728)      2912        separable_conv1d_381[0][0]       \n","__________________________________________________________________________________________________\n","activation_431 (Activation)     (None, 38, 728)      0           batch_normalization_477[0][0]    \n","__________________________________________________________________________________________________\n","separable_conv1d_382 (Separable (None, 38, 728)      532896      activation_431[0][0]             \n","__________________________________________________________________________________________________\n","batch_normalization_478 (BatchN (None, 38, 728)      2912        separable_conv1d_382[0][0]       \n","__________________________________________________________________________________________________\n","activation_432 (Activation)     (None, 38, 728)      0           batch_normalization_478[0][0]    \n","__________________________________________________________________________________________________\n","separable_conv1d_383 (Separable (None, 38, 728)      532896      activation_432[0][0]             \n","__________________________________________________________________________________________________\n","batch_normalization_479 (BatchN (None, 38, 728)      2912        separable_conv1d_383[0][0]       \n","__________________________________________________________________________________________________\n","add_136 (Add)                   (None, 38, 728)      0           batch_normalization_479[0][0]    \n","                                                                 add_135[0][0]                    \n","__________________________________________________________________________________________________\n","activation_433 (Activation)     (None, 38, 728)      0           add_136[0][0]                    \n","__________________________________________________________________________________________________\n","separable_conv1d_384 (Separable (None, 38, 728)      532896      activation_433[0][0]             \n","__________________________________________________________________________________________________\n","batch_normalization_480 (BatchN (None, 38, 728)      2912        separable_conv1d_384[0][0]       \n","__________________________________________________________________________________________________\n","activation_434 (Activation)     (None, 38, 728)      0           batch_normalization_480[0][0]    \n","__________________________________________________________________________________________________\n","separable_conv1d_385 (Separable (None, 38, 728)      532896      activation_434[0][0]             \n","__________________________________________________________________________________________________\n","batch_normalization_481 (BatchN (None, 38, 728)      2912        separable_conv1d_385[0][0]       \n","__________________________________________________________________________________________________\n","activation_435 (Activation)     (None, 38, 728)      0           batch_normalization_481[0][0]    \n","__________________________________________________________________________________________________\n","separable_conv1d_386 (Separable (None, 38, 728)      532896      activation_435[0][0]             \n","__________________________________________________________________________________________________\n","batch_normalization_482 (BatchN (None, 38, 728)      2912        separable_conv1d_386[0][0]       \n","__________________________________________________________________________________________________\n","add_137 (Add)                   (None, 38, 728)      0           batch_normalization_482[0][0]    \n","                                                                 add_136[0][0]                    \n","__________________________________________________________________________________________________\n","activation_436 (Activation)     (None, 38, 728)      0           add_137[0][0]                    \n","__________________________________________________________________________________________________\n","separable_conv1d_387 (Separable (None, 38, 728)      532896      activation_436[0][0]             \n","__________________________________________________________________________________________________\n","batch_normalization_483 (BatchN (None, 38, 728)      2912        separable_conv1d_387[0][0]       \n","__________________________________________________________________________________________________\n","activation_437 (Activation)     (None, 38, 728)      0           batch_normalization_483[0][0]    \n","__________________________________________________________________________________________________\n","separable_conv1d_388 (Separable (None, 38, 728)      532896      activation_437[0][0]             \n","__________________________________________________________________________________________________\n","batch_normalization_484 (BatchN (None, 38, 728)      2912        separable_conv1d_388[0][0]       \n","__________________________________________________________________________________________________\n","activation_438 (Activation)     (None, 38, 728)      0           batch_normalization_484[0][0]    \n","__________________________________________________________________________________________________\n","separable_conv1d_389 (Separable (None, 38, 728)      532896      activation_438[0][0]             \n","__________________________________________________________________________________________________\n","batch_normalization_485 (BatchN (None, 38, 728)      2912        separable_conv1d_389[0][0]       \n","__________________________________________________________________________________________________\n","add_138 (Add)                   (None, 38, 728)      0           batch_normalization_485[0][0]    \n","                                                                 add_137[0][0]                    \n","__________________________________________________________________________________________________\n","activation_439 (Activation)     (None, 38, 728)      0           add_138[0][0]                    \n","__________________________________________________________________________________________________\n","separable_conv1d_390 (Separable (None, 38, 728)      532896      activation_439[0][0]             \n","__________________________________________________________________________________________________\n","batch_normalization_486 (BatchN (None, 38, 728)      2912        separable_conv1d_390[0][0]       \n","__________________________________________________________________________________________________\n","activation_440 (Activation)     (None, 38, 728)      0           batch_normalization_486[0][0]    \n","__________________________________________________________________________________________________\n","separable_conv1d_391 (Separable (None, 38, 728)      532896      activation_440[0][0]             \n","__________________________________________________________________________________________________\n","batch_normalization_487 (BatchN (None, 38, 728)      2912        separable_conv1d_391[0][0]       \n","__________________________________________________________________________________________________\n","activation_441 (Activation)     (None, 38, 728)      0           batch_normalization_487[0][0]    \n","__________________________________________________________________________________________________\n","separable_conv1d_392 (Separable (None, 38, 728)      532896      activation_441[0][0]             \n","__________________________________________________________________________________________________\n","batch_normalization_488 (BatchN (None, 38, 728)      2912        separable_conv1d_392[0][0]       \n","__________________________________________________________________________________________________\n","add_139 (Add)                   (None, 38, 728)      0           batch_normalization_488[0][0]    \n","                                                                 add_138[0][0]                    \n","__________________________________________________________________________________________________\n","activation_442 (Activation)     (None, 38, 728)      0           add_139[0][0]                    \n","__________________________________________________________________________________________________\n","separable_conv1d_393 (Separable (None, 38, 728)      532896      activation_442[0][0]             \n","__________________________________________________________________________________________________\n","batch_normalization_489 (BatchN (None, 38, 728)      2912        separable_conv1d_393[0][0]       \n","__________________________________________________________________________________________________\n","activation_443 (Activation)     (None, 38, 728)      0           batch_normalization_489[0][0]    \n","__________________________________________________________________________________________________\n","separable_conv1d_394 (Separable (None, 38, 728)      532896      activation_443[0][0]             \n","__________________________________________________________________________________________________\n","batch_normalization_490 (BatchN (None, 38, 728)      2912        separable_conv1d_394[0][0]       \n","__________________________________________________________________________________________________\n","activation_444 (Activation)     (None, 38, 728)      0           batch_normalization_490[0][0]    \n","__________________________________________________________________________________________________\n","separable_conv1d_395 (Separable (None, 38, 728)      532896      activation_444[0][0]             \n","__________________________________________________________________________________________________\n","batch_normalization_491 (BatchN (None, 38, 728)      2912        separable_conv1d_395[0][0]       \n","__________________________________________________________________________________________________\n","add_140 (Add)                   (None, 38, 728)      0           batch_normalization_491[0][0]    \n","                                                                 add_139[0][0]                    \n","__________________________________________________________________________________________________\n","activation_445 (Activation)     (None, 38, 728)      0           add_140[0][0]                    \n","__________________________________________________________________________________________________\n","separable_conv1d_396 (Separable (None, 38, 728)      532896      activation_445[0][0]             \n","__________________________________________________________________________________________________\n","batch_normalization_492 (BatchN (None, 38, 728)      2912        separable_conv1d_396[0][0]       \n","__________________________________________________________________________________________________\n","activation_446 (Activation)     (None, 38, 728)      0           batch_normalization_492[0][0]    \n","__________________________________________________________________________________________________\n","separable_conv1d_397 (Separable (None, 38, 728)      532896      activation_446[0][0]             \n","__________________________________________________________________________________________________\n","batch_normalization_493 (BatchN (None, 38, 728)      2912        separable_conv1d_397[0][0]       \n","__________________________________________________________________________________________________\n","activation_447 (Activation)     (None, 38, 728)      0           batch_normalization_493[0][0]    \n","__________________________________________________________________________________________________\n","separable_conv1d_398 (Separable (None, 38, 728)      532896      activation_447[0][0]             \n","__________________________________________________________________________________________________\n","batch_normalization_494 (BatchN (None, 38, 728)      2912        separable_conv1d_398[0][0]       \n","__________________________________________________________________________________________________\n","add_141 (Add)                   (None, 38, 728)      0           batch_normalization_494[0][0]    \n","                                                                 add_140[0][0]                    \n","__________________________________________________________________________________________________\n","activation_448 (Activation)     (None, 38, 728)      0           add_141[0][0]                    \n","__________________________________________________________________________________________________\n","separable_conv1d_399 (Separable (None, 38, 728)      532896      activation_448[0][0]             \n","__________________________________________________________________________________________________\n","batch_normalization_495 (BatchN (None, 38, 728)      2912        separable_conv1d_399[0][0]       \n","__________________________________________________________________________________________________\n","activation_449 (Activation)     (None, 38, 728)      0           batch_normalization_495[0][0]    \n","__________________________________________________________________________________________________\n","separable_conv1d_400 (Separable (None, 38, 728)      532896      activation_449[0][0]             \n","__________________________________________________________________________________________________\n","batch_normalization_496 (BatchN (None, 38, 728)      2912        separable_conv1d_400[0][0]       \n","__________________________________________________________________________________________________\n","activation_450 (Activation)     (None, 38, 728)      0           batch_normalization_496[0][0]    \n","__________________________________________________________________________________________________\n","separable_conv1d_401 (Separable (None, 38, 728)      532896      activation_450[0][0]             \n","__________________________________________________________________________________________________\n","batch_normalization_497 (BatchN (None, 38, 728)      2912        separable_conv1d_401[0][0]       \n","__________________________________________________________________________________________________\n","add_142 (Add)                   (None, 38, 728)      0           batch_normalization_497[0][0]    \n","                                                                 add_141[0][0]                    \n","__________________________________________________________________________________________________\n","activation_451 (Activation)     (None, 38, 728)      0           add_142[0][0]                    \n","__________________________________________________________________________________________________\n","separable_conv1d_402 (Separable (None, 38, 728)      532896      activation_451[0][0]             \n","__________________________________________________________________________________________________\n","batch_normalization_499 (BatchN (None, 38, 728)      2912        separable_conv1d_402[0][0]       \n","__________________________________________________________________________________________________\n","activation_452 (Activation)     (None, 38, 728)      0           batch_normalization_499[0][0]    \n","__________________________________________________________________________________________________\n","separable_conv1d_403 (Separable (None, 38, 1024)     748680      activation_452[0][0]             \n","__________________________________________________________________________________________________\n","batch_normalization_500 (BatchN (None, 38, 1024)     4096        separable_conv1d_403[0][0]       \n","__________________________________________________________________________________________________\n","conv1d_92 (Conv1D)              (None, 19, 1024)     746496      add_142[0][0]                    \n","__________________________________________________________________________________________________\n","max_pooling1d_66 (MaxPooling1D) (None, 19, 1024)     0           batch_normalization_500[0][0]    \n","__________________________________________________________________________________________________\n","batch_normalization_498 (BatchN (None, 19, 1024)     4096        conv1d_92[0][0]                  \n","__________________________________________________________________________________________________\n","add_143 (Add)                   (None, 19, 1024)     0           max_pooling1d_66[0][0]           \n","                                                                 batch_normalization_498[0][0]    \n","__________________________________________________________________________________________________\n","separable_conv1d_404 (Separable (None, 19, 1536)     1577472     add_143[0][0]                    \n","__________________________________________________________________________________________________\n","batch_normalization_501 (BatchN (None, 19, 1536)     6144        separable_conv1d_404[0][0]       \n","__________________________________________________________________________________________________\n","activation_453 (Activation)     (None, 19, 1536)     0           batch_normalization_501[0][0]    \n","__________________________________________________________________________________________________\n","separable_conv1d_405 (Separable (None, 19, 2048)     3152384     activation_453[0][0]             \n","__________________________________________________________________________________________________\n","batch_normalization_502 (BatchN (None, 19, 2048)     8192        separable_conv1d_405[0][0]       \n","__________________________________________________________________________________________________\n","activation_454 (Activation)     (None, 19, 2048)     0           batch_normalization_502[0][0]    \n","__________________________________________________________________________________________________\n","global_average_pooling1d_9 (Glo (None, 2048)         0           activation_454[0][0]             \n","__________________________________________________________________________________________________\n","dropout_29 (Dropout)            (None, 2048)         0           global_average_pooling1d_9[0][0] \n","__________________________________________________________________________________________________\n","dense_21 (Dense)                (None, 61)           124989      dropout_29[0][0]                 \n","==================================================================================================\n","Total params: 20,862,869\n","Trainable params: 20,808,341\n","Non-trainable params: 54,528\n","__________________________________________________________________________________________________\n"],"name":"stdout"}]},{"cell_type":"markdown","metadata":{
…
