…
=adam)\n","model.compile(loss=tf.keras.losses.KLDivergence(), optimizer='adam')\n","# model.compile(loss='categorical_crossentropy', optimizer=SGD(lr=0.01, momentum=0.9, decay=1e-6, nesterov=True))\n","\n","#model.add(BatchNormalization())\n","\n","model.summary()"],"execution_count":19,"outputs":[{"output_type":"stream","text":["Model: \"sequential_12\"\n","_________________________________________________________________\n","Layer (type)                 Output Shape              Param #   \n","=================================================================\n","conv2d_143 (Conv2D)          (None, 100, 100, 64)      640       \n","_________________________________________________________________\n","batch_normalization_152 (Bat (None, 100, 100, 64)      256       \n","_________________________________________________________________\n","conv2d_144 (Conv2D)          (None, 100, 100, 64)      36928     \n","_________________________________________________________________\n","batch_normalization_153 (Bat (None, 100, 100, 64)      256       \n","_________________________________________________________________\n","max_pooling2d_8 (MaxPooling2 (None, 50, 50, 64)        0         \n","_________________________________________________________________\n","dropout_56 (Dropout)         (None, 50, 50, 64)        0         \n","_________________________________________________________________\n","conv2d_145 (Conv2D)          (None, 50, 50, 128)       73856     \n","_________________________________________________________________\n","batch_normalization_154 (Bat (None, 50, 50, 128)       512       \n","_________________________________________________________________\n","conv2d_146 (Conv2D)          (None, 50, 50, 128)       147584    \n","_________________________________________________________________\n","batch_normalization_155 (Bat (None, 50, 50, 128)       512       \n","_________________________________________________________________\n","conv2d_147 (Conv2D)          (None, 50, 50, 128)       147584    \n","_________________________________________________________________\n","batch_normalization_156 (Bat (None, 50, 50, 128)       512       \n","_________________________________________________________________\n","max_pooling2d_9 (MaxPooling2 (None, 25, 25, 128)       0         \n","_________________________________________________________________\n","dropout_57 (Dropout)         (None, 25, 25, 128)       0         \n","_________________________________________________________________\n","conv2d_148 (Conv2D)          (None, 25, 25, 256)       295168    \n","_________________________________________________________________\n","batch_normalization_157 (Bat (None, 25, 25, 256)       1024      \n","_________________________________________________________________\n","conv2d_149 (Conv2D)          (None, 25, 25, 256)       590080    \n","_________________________________________________________________\n","batch_normalization_158 (Bat (None, 25, 25, 256)       1024      \n","_________________________________________________________________\n","conv2d_150 (Conv2D)          (None, 25, 25, 256)       590080    \n","_________________________________________________________________\n","batch_normalization_159 (Bat (None, 25, 25, 256)       1024      \n","_________________________________________________________________\n","conv2d_151 (Conv2D)          (None, 25, 25, 256)       590080    \n","_________________________________________________________________\n","batch_normalization_160 (Bat (None, 25, 25, 256)       1024      \n","_________________________________________________________________\n","max_pooling2d_10 (MaxPooling (None, 12, 12, 256)       0         \n","_________________________________________________________________\n","dropout_58 (Dropout)         (None, 12, 12, 256)       0         \n","_________________________________________________________________\n","conv2d_152 (Conv2D)          (None, 12, 12, 512)       1180160   \n","_________________________________________________________________\n","batch_normalization_161 (Bat (None, 12, 12, 512)       2048      \n","_________________________________________________________________\n","conv2d_153 (Conv2D)          (None, 12, 12, 512)       2359808   \n","_________________________________________________________________\n","batch_normalization_162 (Bat (None, 12, 12, 512)       2048      \n","_________________________________________________________________\n","conv2d_154 (Conv2D)          (None, 12, 12, 512)       2359808   \n","_________________________________________________________________\n","batch_normalization_163 (Bat (None, 12, 12, 512)       2048      \n","_________________________________________________________________\n","conv2d_155 (Conv2D)          (None, 12, 12, 512)       2359808   \n","_________________________________________________________________\n","batch_normalization_164 (Bat (None, 12, 12, 512)       2048      \n","_________________________________________________________________\n","max_pooling2d_11 (MaxPooling (None, 6, 6, 512)         0         \n","_________________________________________________________________\n","dropout_59 (Dropout)         (None, 6, 6, 512)         0         \n","_________________________________________________________________\n","flatten_11 (Flatten)         (None, 18432)             0         \n","_________________________________________________________________\n","dense_21 (Dense)             (None, 4096)              75501568  \n","_________________________________________________________________\n","batch_normalization_165 (Bat (None, 4096)              16384     \n","_________________________________________________________________\n","dropout_60 (Dropout)         (None, 4096)              0         \n","_________________________________________________________________\n","dense_22 (Dense)             (None, 1000)              4097000   \n","_________________________________________________________________\n","batch_normalization_166 (Bat (None, 1000)              4000      \n","_________________________________________________________________\n","dropout_61 (Dropout)         (None, 1000)              0         \n","_________________________________________________________________\n","dense_23 (Dense)             (None, 30)                30030     \n","=================================================================\n","Total params: 90,394,902\n","Trainable params: 90,377,542\n","Non-trainable params: 17,360\n","_________________________________________________________________\n"],"name":"stdout"}]},{"cell_type":"code","metadata":{"id":"OVffAruI75nd","colab_type":"code","colab":{"base_uri":"https://localhost:8080/","height":1000},"ex
…
